Official-Blitz/cifar_net.pth (torch_old, 249582 bytes, 10 tensors)

conv1.weight f4 [6, 3, 5, 5]
0.07305561 -0.060199317 0.22130688 0.22037555 -0.15229109 -0.07501602 0.101618685 0.10728366
0.11405423 -0.005443363 -0.25218353 -0.28632566 -0.25933498 -0.24602453 -0.1351912 -0.07307193
-0.3175187 -0.39212355 -0.2844756 -0.053614732 0.3004185 0.3277991 0.241722 0.29735753
0.20252764 0.057285517 0.16505973 0.24948008 0.25206152 -0.058241222 0.1033849 0.23187809
0.34996876 0.107344486 0.03394228 -0.1922081 -0.08755608 -0.29646105 -0.13880509 0.030259002
-0.22272785 -0.3142406 -0.37269992 -0.23732534 -0.108963415 0.033349358 0.24957527 0.26531282
0.12791389 0.034714032 0.10997812 0.14896905 0.17385845 0.20608146 0.07253701 0.118987925
0.14502937 0.2947517 0.27188325 -0.009555185 -0.066276915 -0.19919688 -0.23801957 -0.20419158
-0.13706943 -0.022727055 -0.2888393 -0.26362738 -0.23982382 -0.042581063 -0.019319376 0.1380721
0.0837474 0.15856965 0.10747368 -0.1239832 -0.17157403 -0.111350946 -0.1204136 -0.10508627
-0.14935909 -0.20732188 -0.24132316 -0.14523038 -0.116479315 -0.16683829 -0.067018636 -0.18921848
-0.20927244 -0.22095628 -0.22145374 -0.092872985 -0.18729295 -0.14785008 -0.028229963 -0.14591976
-0.018206557 -0.06622262 -0.1652311 -0.107866906 -0.02003994 0.0047932514 -0.031202666 -0.04685243
-0.1300582 0.013918086 0.10266606 0.07315223 0.03502542 -0.10652155 -0.065159924 -0.0627135
-0.014524169 -0.012928106 0.022510527 0.030249177 0.0115864035 0.082697384 0.06850385 -0.0002741959
-0.028185941 -0.052262016 -0.09306776 0.016379353 -0.118259765 0.21360102 0.28386062 0.13502401
0.114478335 0.097038224 0.22259937 0.26540795 0.31751126 0.16937357 0.16011028 0.251297
0.28548425 0.32219005 0.26107007 0.062732376 0.26415884 0.1858456 0.24765591 0.1064878
0.07266344 0.08584722 0.25649318 0.1747474 0.114626765 -0.026191767 -0.12234998 -0.15632643
-0.0996596 -0.12945561 -0.13944311 0.13826579 0.12503512 0.10282767 0.08969373 0.07680565
0.1183995 0.13348702 0.27989337 0.29121566 0.0923976 0.16055724 0.15104726 0.09184928
0.091891184 0.19435327 0.12729025 0.123450704 0.14074105 0.12096308 0.19892628 -0.011452964
-0.07731413 -0.22716773 -0.15318412 -0.09433111 0.0118666245 0.00012589962 0.005658682 -0.009019162
-0.09954773 -0.080189645 0.04431421 0.031126512 -0.016017577 -0.11789431 -0.15781772 -0.044308893
0.03917862 0.045052886 -0.15656008 -0.039578713 -0.20173319 -0.06770498 -0.14877704 -0.09199638
-0.087805934 -0.0033240188 0.030188752 0.09650501 0.13977432 0.017832004 0.09745493 0.25279182
0.21541625 0.070233695 -0.0081885485 0.112654924 0.106679164 0.110476814 0.115975924 0.07991555
0.109293416 0.17972608 0.10621074 0.055945992 -0.11633449 0.08073118 -0.035176 0.03227057
-0.11047849 0.07005441 0.01599817 -0.12915337 0.08351263 0.35822174 0.07412072 0.19428144
-0.4837211 -0.23225802 0.40806383 0.13361332 0.3754015 -0.42540547 -0.36152402 0.28594598
0.071535796 0.3088973 -0.14521037 -0.3316772 0.07981348 0.016670361 0.13919719 0.015713824
-0.16022728 0.020361157 0.05121867 -0.1068986 -0.33331946 -0.10489143 0.20399328 0.18977864
00000000: 2e9e 953d 8f93 76bd 459e 623e 21aa 613e
00000010: 32f2 1bbe 00a2 99bd 751d d03d 89b7 db3d
00000020: 4495 e93d 3d5e b2bb 331e 81be 4799 92be
00000030: 8ec7 84be dbed 7bbe 906f 0abe bca6 95bd
00000040: d091 a2be 6bc4 c8be c9a6 91be 1f9b 5bbd
00000050: 74d0 993e 49d5 a73e f985 773e 3f3f 983e
00000060: 6863 4f3e 38a4 6a3d 6b05 293e b577 7f3e
00000070: 350e 813e 598e 6ebd 76bb d33d 7371 6d3e
00000080: 1b2f b33e 6dd7 db3d 0f07 0b3d 33d2 44be
00000090: 9a50 b3bd bec9 97be ec22 0ebe bae1 f73c
000000a0: c512 64be 25e4 a0be 86d2 bebe 6a05 73be
000000b0: 3628 dfbd 5699 083d a990 7f3e 15d7 873e
000000c0: dcfb 023e 4d30 0e3d 353c e13d 588b 183e
000000d0: f307 323e 0507 533e 498e 943d f1af f33d
000000e0: 9482 143e b2e9 963e 4834 8b3e 5a8d 1cbc
000000f0: 31bc 87bd 44fa 4bbe 67bb 73be 9917 51be
00000100: ee5b 0cbe 172e babc bfe2 93be 2bfa 86be
00000110: 6094 75be 7b69 2ebd ab43 9ebc c662 0d3e
00000120: c283 ab3d 1560 223e 291b dc3d e7ea fdbd
00000130: 1ab1 2fbe f70b e4bd 689b f6bd 7837 d7bd
00000140: 97f1 18be 304c 54be 6b1d 77be 46b7 14be
00000150: b58c eebd a8d7 2abe 1141 89bd 7dc2 41be
00000160: 844b 56be 5d42 62be c5c4 62be 3134 bebd
00000170: b9c9 3fbe 0366 17be 8642 e7bc fd6b 15be
00000180: eb25 95bc ba9f 87bd 5732 29be 53e9 dcbd
00000190: cd2a a4bc b510 9d3b bc9c ffbc 55e8 3fbd
000001a0: fa2d 05be af08 643c 9542 d23d d6d0 953d
000001b0: d176 0f3d f827 dabd 9172 85bd ef6f 80bd
000001c0: c8f6 6dbc 68d0 53bc ff67 b83c 1fcd f73c
000001d0: e6d4 3d3c 3f5d a93d bf4b 8c3d f3c1 8fb9
000001e0: 34e6 e6bc b210 56bd 4f9a bebd fe2d 863c
000001f0: 2d32 f2bd 3aba 5a3e 2e56 913e bc43 0a3e
00000200: 9e73 ea3d fabb c63d 17f1 633e 8de3 873e
00000210: d690 a23e 4470 2d3e f3f3 233e 00aa 803e
00000220: fe2a 923e 18f6 a43e faaa 853e d579 803d
00000230: d43f 873e 4f4e 3e3e 8399 7d3e 4716 da3d
00000240: 92d0 943d abd0 af3d 1353 833e fcf0 323e
00000250: 70c1 ea3d 1e90 d6bc a092 fabd 0914 20be
00000260: 551a ccbd 0390 04be 2dca 0ebe 8c95 0d3e
00000270: 3509 003e 5097 d23d 59b1 b73d 484c 9d3d
00000280: 707b f23d d2b0 083e 2f4e 8f3e 381a 953e
00000290: f43a bd3d 1e69 243e 22ac 1a3e 7a1b bc3d
000002a0: 7231 bc3d 8b04 473e 6058 023e b9d3 fc3d
000002b0: 6c1e 103e 7ebb f73d 55b3 4b3e 36a5 3bbc
000002c0: df56 9ebd a89e 68be 4cdc 1cbe ab30 c1bd
000002d0: 3b6c 423c ec03 0439 776c b93b 1bc5 13bc
000002e0: aedf cbbd 783a a4bd d182 353d 07fd fe3c
000002f0: 4b37 83bc 9272 f1bd f89a 21be 3e7d 35bd
00000300: c379 203d 6089 383d 4951 20be 4a1d 22bd
00000310: 2593 4ebe e9a8 8abd 0259 18be 9968 bcbd
00000320: 99d3 b3bd c8d7 59bb 674e f73c 6ba4 c53d
00000330: 0021 0f3e 6c14 923c 7396 c73d ee6d 813e
00000340: 1496 5c3e afd6 8f3d 4329 06bc a0b7 e63d
00000350: 9b7a da3d ab41 e23d c984 ed3d c4aa a33d
00000360: 3ad5 df3d 1d0a 383e 0485 d93d a027 653d
00000370: c740 eebd 6456 a53d b614 10bd 252e 043d
00000380: 8c42 e2bd b078 8f3d 980e 833c c840 04be
00000390: ab08 ab3d d768 b73e 9bcc 973d b7f1 463e
000003a0: 4baa f7be 0cd5 6dbe beed d03e eed1 083e
000003b0: a034 c03e bfce d9be ad19 b9be 8367 923e
000003c0: 5c81 923d c927 9e3e 07b2 14be 98d1 a9be
000003d0: 4075 a33d 4890 883c b589 0e3e 47ba 803c
000003e0: 9f12 24be 71cc a63c abca 513d a7ed dabd
000003f0: d9a8 aabe 51d1 d6bd 9de3 503e 5555 423e

conv1.bias f4 [6]
-0.28965884 0.51334697 0.23646788 -0.17140032 -0.22040714 -0.46214786
00000000: 2a4e 94be b56a 033f a324 723e 9183 2fbe
00000010: 69b2 61be a59e ecbe

conv2.weight f4 [16, 6, 5, 5]
0.11709228 0.01613335 0.013625103 -0.056596756 -0.16785108 0.06538522 0.12090422 0.046375528
-0.05135552 -0.020121848 -0.009793369 0.09276335 0.00065580284 0.011226909 0.030155405 -0.112619735
-0.051233236 -0.03558752 -0.014915877 0.15203898 -0.09031214 -0.026507586 -0.022816993 0.0069453986
0.12539105 -0.17690839 -0.21059074 -0.13572976 0.029087575 0.15267979 -0.18063082 -0.23075506
-0.16671571 0.030254558 0.27689642 -0.30704945 -0.20212607 -0.16498215 0.057123847 0.29514402
-0.18365517 -0.14484996 -0.04363724 0.073548876 0.19193372 -0.051040675 0.026363907 0.15548073
0.17819902 0.20191163 -0.19296458 -0.191219 0.01641701 0.09488923 0.27485198 -0.2883273
-0.22570994 -0.05883302 0.2843093 0.3651573 -0.30359134 -0.1940269 -0.041822314 0.22997509
0.2970642 -0.2620392 -0.15171508 0.0583444 0.044464447 0.19241777 -0.011799942 0.040277477
0.010462653 0.037776604 -0.022463627 -0.06970216 -0.057740845 -0.03647209 -0.1188892 -0.07247743
-0.18315688 -0.12550886 -0.15496011 -0.11991404 -0.10313267 -0.21395446 -0.20056517 -0.13863218
-0.17214102 -0.040887848 -0.1407665 -0.1264985 -0.13300428 0.00352594 0.07852779 -0.07380777
-0.06507817 0.008818605 0.12164424 0.092075296 -0.00043184796 0.024342397 0.046994414 0.10632818
-0.07666008 0.026048351 0.06091201 0.17195544 0.022647327 -0.19763201 0.16626856 0.22327128
0.058312055 -0.0713896 -0.12928747 0.09170877 0.08225363 0.022095593 -0.058825992 -0.07148645
0.06590407 0.01362114 -0.061248902 0.08111652 0.017055597 0.0067949444 0.08454628 -0.01312186
0.042703938 -0.038223386 -0.086949565 -0.063151635 0.018116904 -0.054281294 0.08429527 -0.061220773
-0.07279422 -0.0922649 -0.064419135 0.039721146 0.005007331 -0.12226791 -0.052806787 -0.005201487
-0.10363645 0.07955636 0.107980445 0.04568297 -0.13256952 -0.09179163 0.16516443 0.089817874
-0.047602374 0.14388946 0.08422533 -0.0435331 -0.08198093 -0.16496854 -0.12031967 -0.0705539
0.07812168 0.041924972 -0.04075639 -0.015983531 0.056836806 0.084556006 -0.0060303123 -0.012476678
0.016477425 -0.030115183 -0.05828623 -0.060153417 -0.07871247 -0.079828985 -0.0645346 -0.07319853
0.0392055 0.06172358 -0.0043213684 0.11842346 -0.041253693 0.012051334 -0.04065472 0.033458587
0.17589736 -0.027856981 -0.14384907 -0.037430074 0.09577671 0.16858535 -0.12465509 -0.11928997
-0.14741503 -0.0028727485 0.15125027 -0.10528192 -0.08818203 -0.08087132 0.024834324 0.040903527
-0.10209653 -0.041749734 -0.00456486 0.015396158 -0.039760016 -0.038231242 0.020213548 -0.011454156
-0.035866674 -0.07346133 -0.022400528 0.028890774 -0.017370163 -0.06471038 0.01674573 0.019954799
-0.01980549 -0.059596 -0.03343288 -0.011985927 0.070566736 0.05911316 0.044814236 -0.08671946
-0.12686384 -0.018878005 0.07807832 0.0449821 -0.10802798 0.18022105 -0.050342478 0.038709667
0.029105837 -0.10487268 0.27254656 -0.07868695 0.0863419 -0.008875245 -0.071155325 0.2735111
-0.13094997 0.06808312 -0.029071737 -0.0006916744 0.20299885 -0.08906977 0.09626817 -0.0678408
0.027912142 0.0786973 -0.007416718 -0.05374192 0.068225145 0.060523715 0.050931312 -0.12227922
00000000: 14ce ef3d 162a 843c d33b 5f3c 00d2 67bd
00000010: 27e1 2bbe b0e8 853d a29c f73d 44f4 3d3d
00000020: 2a5a 52bd 93d6 a4bc 5e74 20bc b6fa bd3d
00000030: 2fea 2b3a 12f1 373c 7808 f73c 2da5 e6bd
00000040: f1d9 51bd 38c4 11bd b961 74bc 1bb0 1b3e
00000050: 92f5 b8bd 7026 d9bc b4ea babc 3a96 e33b
00000060: 8366 003e 7927 35be 19a5 57be befc 0abe
00000070: 1149 ee3c 1758 1c3e 49f7 38be 0e4b 6cbe
00000080: 86b7 2abe 68d8 f73c 5ec5 8d3e 9635 9dbe
00000090: 23fa 4ebe 15f1 28be b2fa 693d 1e1d 973e
000000a0: 1a10 3cbe 8c53 14be f6bc 32bd cba0 963d
000000b0: 468a 443e 0710 51bd 1ff9 d73c 5736 1f3e
000000c0: ce79 363e ecc1 4e3e 8298 45be eace 43be
000000d0: f77c 863c 4955 c23d 66b9 8c3e a39f 93be
000000e0: 8220 67be e5fa 70bd fd90 913e e6f5 ba3e
000000f0: 5370 9bbe fdae 46be e04d 2bbd 977e 6b3e
00000100: cc18 983e 012a 86be 335b 1bbe 8afa 6e3d
00000110: 5a20 363d 2a09 453e 8b54 41bc fff9 243d
00000120: 8c6b 2b3c a4bb 1a3d a405 b8bc 02c0 8ebd
00000130: aa81 6cbd c263 15bd 2e7c f3bd 0c6f 94bd
00000140: 7a8d 3bbe 6585 00be ddad 1ebe 7e95 f5bd
00000150: 3937 d3bd e116 5bbe f560 4dbe 98f5 0dbe
00000160: bc45 30be 047a 27bd 1825 10be d388 01be
00000170: 4632 08be 7513 673b 2ed3 a03d 8728 97bd
00000180: b447 85bd e97b 103c 9e20 f93d f991 bc3d
00000190: a769 e2b9 b569 c73c 377d 403d 97c2 d93d
000001a0: f6ff 9cbd 5a63 d53c df7e 793d 1615 303e
000001b0: e386 b93c 0c60 4abe 4e42 2a3e 3aa1 643e
000001c0: 9fd8 6e3d b634 92bd ef63 04be cfd1 bb3d
000001d0: 9774 a83d d101 b53c 86f3 70bd 7d67 92bd
000001e0: b7f8 863d 342b 5f3c 21e0 7abd 6b20 a63d
000001f0: 2eb8 8b3c 20a8 de3b 9a26 ad3d 12fd 56bc
00000200: 53ea 2e3d 2090 1cbd 9d12 b2bd a555 81bd
00000210: e769 943c 1056 5ebd 00a3 ac3d a2c2 7abd
00000220: 2315 95bd 61f5 bcbd 2eee 83bd a4b2 223d
00000230: 8914 a43b 9967 fabd ee4b 58bd 3c71 aabb
00000240: 593f d4bd 72ee a23d da24 dd3d 111e 3b3d
00000250: 4ec0 07be 40fd bbbd dd20 293e 6ff2 b73d
00000260: b5fa 42bd c257 133e 547e ac3d c44f 32bd
00000270: 9ee5 a7bd 83ed 28be 296a f6bd 907e 90bd
00000280: 42fe 9f3d 85b9 2b3d 2cf0 26bd e5ef 82bc
00000290: b6cd 683d b32b ad3d ed99 c5bb fb6a 4cbc
000002a0: aafb 863c 1eb4 f6bc 8bbd 6ebd 6e63 76bd
000002b0: 0134 a1bd 617d a3bd b72a 84bd 1ce9 95bd
000002c0: f295 203d ddd1 7c3d 449a 8dbb 0088 f23d
000002d0: a2f9 28bd f572 453c 9085 26bd df0b 093d
000002e0: 701e 343e 5334 e4bc 2c4d 13be 4750 19bd
000002f0: 9426 c43d a3a1 2c3e 2b4b ffbd 4d4e f4bd
00000300: f7f3 16be b944 3cbb 5ae1 1a3e 0c9e d7bd
00000310: c898 b4bd dd9f a5bd 5a71 cb3c 758a 273d
00000320: fc17 d1bd c501 2bbd d294 95bb 2b40 7c3c
00000330: 66db 22bd 5d98 1cbd e296 a53c 36aa 3bbc
00000340: efe8 12bd e572 96bd 5081 b7bc 58ac ec3c
00000350: df4b 8ebc e086 84bd 572e 893c 3f78 a33c
00000360: 1f3f a2bc ef1a 74bd eaf0 08bd 9f60 44bc
00000370: 4b85 903d a420 723d 228f 373d f999 b1bd
00000380: 98e8 01be 0ca6 9abc 87e7 9f3d 273f 383d
00000390: c63d ddbd de8b 383e ea33 4ebd 078e 1e3d
000003a0: 5d6f ee3c 7dc7 d6bd 398b 8b3e a026 a1bd
000003b0: 06d4 b03d 7a69 11bc e2b9 91bd a609 8c3e
000003c0: c017 06be 2a6f 8b3d da27 eebc 7c51 35ba
000003d0: eede 4f3e 366a b6bd 3f28 c53d 1ef0 8abd
000003e0: 01a8 e43c 0d2c a13d f107 f3bb 7d20 5cbd
000003f0: a0b9 8b3d b7e7 773d 5a9d 503d 876d fabd

conv2.bias f4 [16]
-0.019010086 -0.509266 0.29051107 0.55730134 -0.6907859 0.3716372 -0.116168745 0.6395444
0.044340454 0.5879792 -0.667882 -0.53144705 -0.047078937 0.5624599 0.14316638 0.18926632
00000000: 0abb 9bbc 425f 02bf debd 943e 4dab 0e3f
00000010: 58d7 30bf 3b47 be3e e1e9 edbd 2fb9 233f
00000020: 569e 353d ce85 163f 51fa 2abf ea0c 08bf
00000030: d8d5 40bd 5ffd 0f3f 359a 123e 08cf 413e

fc1.weight f4 [120, 400]
-0.01939 -0.005994542 0.028981358 -0.029254913 0.002382395 0.015528781 -0.037465993 0.015007209
-0.013533096 0.05156251 -0.02882443 -0.048548028 0.004158802 0.06617865 0.00044848208 -0.0044757635
-0.008484791 -0.02085645 0.024131002 0.0095696 0.0058758827 0.034852624 -0.009370452 -0.054881543
-0.06828623 -0.0037598694 0.057757992 0.021439897 -0.026261128 -0.045849994 0.007731426 0.021415642
-0.023540813 -0.060926516 -0.0422707 -0.012029328 -0.08699129 -0.05012411 -0.018617306 -0.02499775
-0.03371129 0.008785283 -0.04824097 -0.025660152 0.006651047 0.01127025 0.015723737 0.032230817
-0.003800765 0.0015502917 0.002816178 0.01837311 0.017244648 -0.03846898 -0.032553483 -0.03130113
0.008254535 -0.016479246 -0.007346829 0.0030841825 -0.08877335 0.009062234 -0.013277246 0.0048914803
0.028033037 -0.06604272 -0.06461945 -0.034918196 0.02204025 0.014339251 -0.060803127 -0.00815207
-0.018922087 0.014916078 0.027919635 -0.036147833 -0.06714311 -0.012817198 -0.05321474 -0.048809335
0.026289841 -0.017613716 -0.019039504 -0.03000601 0.014898066 0.001389719 -0.030502327 -0.019256776
0.024264997 -0.018675987 -0.022769019 0.030786518 0.041873626 -0.029259302 -0.015981952 0.040703017
0.03971918 -0.042666223 0.0027141762 0.04213698 0.044948354 0.061169855 -0.0068732263 0.034867786
0.06517187 -0.00038670635 0.035905983 -0.028176969 -0.027102802 -0.015025321 0.019278595 -0.06591973
-0.05067804 -0.023885341 0.0084133735 0.018516764 -0.04316713 -0.087674275 0.01355952 0.0057073827
-0.0590224 -0.019058745 -0.054424286 -0.0017447722 -0.053954512 0.04066946 0.004788904 0.021224685
0.063723065 0.055675574 -0.004399861 -0.030929714 0.0022623837 -0.05505866 0.04088284 0.008568419
0.013983602 0.023790257 -0.012339084 0.040708095 -0.011769259 -0.018709097 -0.0063763945 -0.007958292
0.01932991 0.09673311 0.08500636 0.061297186 -0.009649915 0.053416662 0.038690776 0.10925083
0.017690685 0.04322533 0.033642676 0.0259317 -0.030714536 0.014484822 -0.03482175 0.0035421615
0.003568609 -0.022301203 -0.04121246 0.0015450709 -0.0077727837 0.042271186 0.028055537 -0.033916127
0.03528221 -0.0062261154 0.045204755 0.021577222 0.038119487 0.016511733 0.050388467 0.03918003
-0.052068256 -0.0076170163 0.0042337724 0.04307913 0.011718965 0.0014515226 0.026548745 -0.02657104
0.0070738373 0.024384556 0.0031455436 -0.0080063 0.014371068 0.04671141 -0.030553745 0.04834516
-0.052443206 -0.032456107 -0.01592959 0.007823362 -0.016959488 -0.038998883 0.014790829 -0.0011655494
0.006513944 0.041831627 0.017681574 -0.034007836 0.029594865 0.038712487 0.0038292303 -0.046716373
-0.013383542 -0.0405617 0.010116591 -0.013169858 -0.03404187 0.0019854216 0.014068199 0.055990968
-0.008462414 0.021081995 -0.024200816 -0.046104066 0.012975467 -0.011197501 0.006095984 0.0574129
-0.0076338025 -0.062014926 -0.033347473 -0.027539223 -0.05542314 -0.022132615 0.04717199 -0.020142596
-0.052259937 -0.004266011 0.003697907 0.032157913 0.009711914 -0.0661153 0.024385624 -0.041600727
-0.017177954 -0.03886711 -0.004075451 -0.028605297 0.015699912 0.07091879 -0.008775184 0.060418524
0.06910342 -0.017980756 0.0017258233 0.033461608 0.0006739128 0.017729437 0.017512415 0.046634134
00000000: c7d7 9ebc dd6d c4bb 506a ed3c 00a8 efbc
00000010: f521 1c3b 6e6c 7e3c f175 19bd cce0 753c
00000020: ebb9 5dbc 3633 533d 3621 ecbc 4cda 46bd
00000030: 8f46 883b ac88 873d 3f22 eb39 6da9 92bb
00000040: cb03 0bbc 25db aabc 61ae c53c d0c9 1c3c
00000050: 7a8a c03b a0c1 0e3d 8686 19bc 78cb 60bd
00000060: a7d9 8bbd 2468 76bb a593 6c3d b9a2 af3c
00000070: 9421 d7bc 34cd 3bbd e757 fd3b db6f af3c
00000080: aad8 c0bc 158e 79bd 0b24 2dbd a916 45bc
00000090: 7d28 b2bd f04e 4dbd 5283 98bc 15c8 ccbc
000000a0: da14 0abd 26f0 0f3c 5398 45bd 3d35 d2bc
000000b0: 07f1 d93b dba6 383c 11cf 803c 7604 043d
000000c0: 4116 79bb 2833 cb3a a08f 383b 3483 963c
000000d0: a644 8d3c a691 1dbd cd56 05bd 9d35 00bd
000000e0: 073e 073c 7cff 86bc abbd f0bb ff1f 4a3b
000000f0: cdce b5bd c479 143c ce88 59bc b648 a03b
00000100: 8aa5 e53c 6841 87bd 3457 84bd 6206 0fbd
00000110: c18d b43c 2eef 6a3c b30c 79bd 4390 05bc
00000120: 7e02 9bbc 9162 743c b8b7 e43c c00f 14bd
00000130: 5482 89bd 3aff 51bc b3f7 59bd 4cec 47bd
00000140: cb5d d73c a44a 90bc bcf8 9bbc 2acf f5bc
00000150: 0517 743c 3b27 b63a 04e0 f9bc 63c0 9dbc
00000160: 63c7 c63c 62fe 98bc 1886 babc 0234 fc3c
00000170: ae83 2b3d 34b1 efbc 95ec 82bc 35b8 263d
00000180: 94b0 223d c7c2 2ebd 52e0 313b d397 2c3d
00000190: c41b 383d 3e8d 7a3d cd38 e1bb 86d1 0e3d
000001a0: d478 853d d9be cab9 2712 133d 63d3 e6bc
000001b0: b206 debc c42c 76bc 25ee 9d3c ec00 87bd
000001c0: c793 4fbd 31ab c3bc 3fd8 093c 78b0 973c
000001d0: 04d0 30bd 928e b3bd c028 5e3c ff04 bb3b
000001e0: 79c1 71bd 1621 9cbc 00ec 5ebd d7b0 e4ba
000001f0: 68ff 5cbd 0595 263d 3dec 9c3b 64df ad3c
00000200: 3d81 823d 120c 643d b62c 90bb 5060 fdbc
00000210: 8044 143b 3185 61bd c474 273d 8e62 0c3c
00000220: 7a1b 653c c9e3 c23c df29 4abc 88bd 263d
00000230: dad3 40bc d243 99bc 13f1 d0bb 7f63 02bc
00000240: c259 9e3c 021c c63d d117 ae3d c212 7b3d
00000250: ad1a 1ebc 6ecb 5a3d 387a 1e3d e6be df3d
00000260: 0eec 903c 0b0d 313d e7cc 093d b76e d43c
00000270: 0d9d fbbc bf51 6d3c 40a1 0ebd 9c23 683b
00000280: 53df 693b 03b1 b6bc 65ce 28bd fa83 ca3a
00000290: d6b2 febb 8d24 2d3d bad4 e53c a3eb 0abd
000002a0: 1484 103d 7104 ccbb 9f28 393d b7c2 b03c
000002b0: 2e23 1c3d 9d43 873c 2364 4e3d 3d7b 203d
000002c0: 8645 55bd 2a98 f9bb 75bb 8a3b be73 303d
000002d0: e700 403c 0441 be3a c17c d93c 82ab d9bc
000002e0: a6cb e73b 1fc2 c73c 7725 4e3b db2c 03bc
000002f0: a174 6b3c 7754 3f3d d94b fabc 9305 463d
00000300: b0ce 56bd b2f0 04bd c67e 82bc 8f2d 003c
00000310: a0ee 8abc 4bbd 1fbd 3c55 723c 59c5 98ba
00000320: ec72 d53b a457 2b3d f3d8 903c cd4b 0bbd
00000330: ee70 f23c fc90 1e3d d3f3 7a3b ab59 3fbd
00000340: a546 5bbc 0624 26bd 0fc0 253c 63c6 57bc
00000350: 7d6f 0bbd d91d 023b 4e7e 663c c956 653d
00000360: f0a5 0abc 26b4 ac3c ca40 c6bc 9ed7 3cbd
00000370: 0e97 543c b975 37bc d2c0 c73b ca29 6b3d
00000380: fa24 fabb 5d03 7ebd 5c97 08bd f099 e1bc
00000390: 6003 63bd 754f b5bc 6b37 413d 1602 a5bc
000003a0: 840e 56bd e5c9 8bbb 9658 723b 04b8 033d
000003b0: b81e 1f3c 7567 87bd 5cc4 c73c 8665 2abd
000003c0: c8b8 8cbc 1e33 1fbd 5c8b 85bb a855 eabc
000003d0: 1a9d 803c df3d 913d cac5 0fbc 6a79 773d
000003e0: 1886 8d3d 614c 93bc 0535 e23a 0a0f 093d
000003f0: 86a9 303a 533d 913c 3276 8f3c 6f03 3f3d

fc1.bias f4 [120]
-0.061142407 0.0038513346 -0.0027277302 -0.009068907 0.011779865 -0.0512519 -0.045542307 0.022182425
-0.0001461898 0.100594975 0.19617116 0.050400883 0.13539723 0.05791405 0.13760616 -0.10029673
-0.026425691 -0.09800489 -0.088180736 -0.10064391 0.16682409 0.035380732 -0.026206523 0.04657791
0.046160143 0.038746744 -0.02338228 -0.08829174 -0.11077702 0.1156586 0.051016875 0.010180339
0.053658884 0.12586579 0.035511483 -0.04547917 0.08075853 0.002303487 0.039610114 -0.02908662
-0.03657054 -0.047182046 -0.029326657 -0.11277823 0.04488374 0.007959358 -0.04005733 0.091990985
-0.021456534 -0.0430492 0.0040701847 0.012605535 -0.002272749 0.23896506 -0.015655288 0.033376236
0.08101862 0.13420884 0.15701775 -0.025222285 0.00934366 0.12750165 0.050073233 0.01938021
-0.011755966 0.0029013152 0.018703047 0.05255495 0.13350466 0.072376475 0.024637688 0.17644383
-0.11183349 -0.044914328 0.13651198 -0.008256797 -0.04881414 0.020510444 0.15079585 -0.13858432
0.0028001291 0.03794375 0.25637925 -0.15947223 -0.09334521 -0.003711545 0.2175852 0.0035927722
0.093817964 -0.103184864 0.0053839223 0.0157875 0.23625077 -0.01726405 0.10624118 0.119316876
0.052502748 -0.013127243 -0.020014111 0.005138713 -0.05071081 0.04281041 0.10661847 0.15936276
-0.021106694 0.009513124 0.085813835 0.016774109 -0.029754262 -0.10721734 0.109328605 0.002420173
0.07029373 0.03623508 -0.012842046 0.17845927 -0.0003220808 -0.027292795 0.027691886 -0.046498016
00000000: 7670 7abd ac66 7c3b b8c3 32bb c195 14bc
00000010: 5600 413c 83ed 51bd 928a 3abd ebb7 b53c
00000020: 874a 19b9 bd04 ce3d 18e1 483e 2871 4e3d
00000030: 92a5 0a3e 4837 6d3d a1e8 0c3e 5f68 cdbd
00000040: b17a d8bc cab6 c8bd 1a98 b4bd 651e cebd
00000050: efd3 2a3e 63eb 103d 10af d6bc 7bc8 3e3d
00000060: 6b12 3d3d e8b4 1e3d 328c bfbc 4dd2 b4bd
00000070: 10df e2bd 6bde ec3d 12f7 503d 70cb 263c
00000080: 6bc9 5b3d f6e2 003e 7d74 113d 5e48 3abd
00000090: ba64 a53d 19f6 163b 373e 223d 1047 eebc
000000a0: feca 15bd f641 41bd 753e f0bc 46f8 e6bd
000000b0: 03d8 373d f867 023c 2813 24bd c565 bc3d
000000c0: 9dc5 afbc 5c54 30bd 2f5f 853b 7287 4e3c
000000d0: 67f2 14bb 42b3 743e 853f 80bc 85b5 083d
000000e0: 17ed a53d 0b6e 093e 43c9 203e f79e cebc
000000f0: 2716 193c cb8f 023e 9719 4d3d 3fc3 9e3c
00000100: 189c 40bc fe23 3e3b 2237 993c dc43 573d
00000110: 72b5 083e 1e3a 943d fad4 c93c b1ad 343e
00000120: f508 e5bd 16f8 37bd ccc9 0b3e 8447 07bc
00000130: 56f1 47bd 8505 a83c 3a6a 1a3e 0ce9 0dbe
00000140: 5f82 373b e86a 1b3d 2444 833e b04c 23be
00000150: c62b bfbd 643d 73bb a8ce 5e3e b774 6b3b
00000160: a223 c03d 9652 d3bd 9d6b b03b ca54 813c
00000170: b9eb 713e 566d 8dbc fa94 d93d 685c f43d
00000180: 1f0d 573d a613 57bc a2f4 a3bc a662 a83b
00000190: 23b6 4fbd f859 2f3d c95a da3d fe2f 233e
000001a0: f2e7 acbc efdc 1b3c 2abf af3d db69 893c
000001b0: 36bf f3bc c494 dbbd ade7 df3d c49b 1e3b
000001c0: 29f6 8f3d 3c6b 143d 7267 52bc 07be 363e
000001d0: f4dc a8b9 2495 dfbc 18da e23c b474 3ebd

fc2.weight f4 [84, 120]
0.09002616 -0.06862344 -0.048782565 0.063574724 -0.03667599 -0.080006644 0.07763476 0.056217276
0.107780695 0.048954885 0.04508028 -0.056090612 0.11410043 0.122925416 0.09192904 -0.02853268
-0.005989914 0.09112719 -0.010836617 -0.082212485 0.11975639 -0.060843658 -0.098964326 -0.0465213
-0.08432095 0.023383811 0.009254548 -0.0024279968 0.0056855734 0.036989495 -0.056299623 -0.008609122
0.046559703 -0.06330345 -0.08611566 0.11704901 0.13288681 -0.048976537 0.05203601 -0.06957128
-0.04557463 -0.06890497 0.05321393 0.09365449 -0.08624877 -0.0926698 0.12744287 -0.1418128
-0.0027417394 -0.0669226 0.020141294 -0.039547022 -0.084290914 -0.022405177 -0.00834956 0.034849033
-0.024387956 -0.009912333 0.09510984 0.05398591 -0.054554347 -0.08606355 0.028079074 0.095092945
0.025611363 -0.05338262 -0.07545286 0.045805603 -0.052517544 -0.0506068 0.0783123 0.005766198
-0.011848339 0.08403138 -0.081963 -0.03686274 0.071323074 -0.082579955 0.021232503 -0.009978208
0.051670834 -0.07472411 -0.067057595 -0.04822576 0.04786882 0.004868702 -0.049219318 -0.054429226
-0.049929053 -0.0644719 0.10037817 0.06912542 -0.013360139 -0.080923155 -0.037443634 -0.045854464
-0.004604352 -0.035937484 -0.035428092 -0.041197676 0.050077435 0.06682026 -0.09510741 -0.043128513
-0.058474123 -0.0315532 0.0570311 -0.041689027 0.0026667097 0.039655592 -0.054480705 -0.024386378
0.032841653 0.028151888 0.1558061 0.011592834 0.05726269 -0.031517316 -0.014160692 0.0704374
0.060409773 0.030160164 -0.017385783 -0.09236324 0.015907854 0.087333135 -0.062288452 -0.00046172697
-0.029987434 0.023499163 0.04304915 -0.0528973 -0.039641093 0.013456173 -0.07801809 0.05398957
0.07089134 0.023295684 0.013175227 0.008848878 0.06731726 0.017206134 0.06251139 0.076342046
0.065383926 -0.057459977 0.07173168 0.0752393 0.014585523 0.038117584 -0.006112188 0.02211385
0.034213748 -0.08738342 -0.0776406 -0.02802682 -0.08436818 -0.071048364 -0.0963052 -0.058518413
-0.032137938 0.0012813159 -0.06250313 -0.10346933 0.039232362 -0.010062328 -0.0019261208 -0.052170433
-0.03478242 0.04469239 -0.0793655 -0.06968711 0.07587286 0.0066144997 0.042875968 0.07672717
-0.09954177 0.017877819 0.019684264 0.005549006 0.008724618 -0.00599656 -0.048541833 0.00037730727
-0.034044515 0.05387367 0.057329856 0.005095203 0.04903878 -0.08915719 0.03238123 -0.05562961
-0.06653873 0.0493884 -0.055507638 0.033497583 -0.06894535 -0.06040623 -0.059274636 -0.031071015
0.011090678 0.091624856 -0.06971254 0.003635568 -0.012005085 0.059716694 -0.08894886 0.054352302
-0.06314543 -0.025058992 -0.08471335 -0.078417316 0.027215112 0.060192484 -0.070961066 0.0022573913
-0.08508829 0.039106887 -0.0070292004 0.019612506 0.061000913 0.024082318 0.07051022 0.02338759
-0.0024351843 -0.036300268 0.059852507 0.011453509 0.020077202 -0.06570632 0.036471914 0.030051028
-0.068014845 0.0079627605 0.041022327 -0.08247284 -0.04994524 -0.06478938 0.011214547 0.061284
0.037445046 0.039395515 0.027278801 0.06030869 -0.07642755 0.03899941 -0.040225916 0.1257094
0.019338481 0.082542695 -0.102115884 -0.08359817 0.07462456 -0.018669402 0.06425164 -0.057790738
00000000: a35f b83d 728a 8cbd 3ad0 47bd 7733 823d
00000010: 9039 16bd 86da a3bd f9fe 9e3d 1644 663d
00000020: 20bc dc3d eb84 483d 1aa6 383d 45bf 65bd
00000030: 7cad e93d 52c0 fb3d 4b45 bc3d 5ebd e9bc
00000040: 0a47 c4bb e4a0 ba3d 118c 31bc 055f a8bd
00000050: d742 f53d 3337 79bd cfad cabd 1e8d 3ebd
00000060: 76b0 acbd 688f bf3c 63a0 173c 071f 1fbb
00000070: 0c4e ba3b 4c82 173d 6f9a 66bd 460d 0dbc
00000080: 63b5 3e3d 3da5 81bd 685d b0bd 64b7 ef3d
00000090: 7b13 083e 9f9b 48bd b623 553d 637b 8ebd
000000a0: 77ac 3abd 0d1e 8dbd daf6 593d edcd bf3d
000000b0: 32a3 b0bd aac9 bdbd 6280 023e 6037 11be
000000c0: c1ae 33bb b70e 89bd 5bff a43c 0ffc 21bd
000000d0: b7a0 acbd 108b b7bc 98cc 08bc dcbd 0e3d
000000e0: 40c9 c7bc 5767 22bc f3c8 c23d 5420 5d3d
000000f0: 6174 5fbd 1642 b0bd 1606 e63c 17c0 c23d
00000100: ecce d13c bca7 5abd 0787 9abd a89e 3b3d
00000110: a31c 57bd 1349 4fbd 3362 a03d 60f2 bc3b
00000120: 891f 42bc a518 ac3d 38dc a7bd 62fd 16bd
00000130: d511 923d ae1f a9bd c9ef ad3c a37b 23bc
00000140: cca4 533d f408 99bd 7e55 89bd 6088 45bd
00000150: 1912 443d a289 9f3b 329a 49bd 2ef1 5ebd
00000160: 6882 4cbd d809 84bd 1293 cd3d a191 8d3d
00000170: 7ce4 5abc 0abb a5bd 7f5e 19bd e4d1 3bbd
00000180: 1be0 96bb 2f33 13bd 0c1d 11bd e5be 28bd
00000190: ff1d 4d3d 0fd9 883d acc7 c2bd 86a7 30bd
000001a0: 9082 6fbd ee3d 01bd 7199 693d 1dc2 2abd
000001b0: f7c3 2e3b e76d 223d 2927 5fbd f1c5 c7bc
000001c0: f884 063d ca9e e63c a28b 1f3e dfef 3d3c
000001d0: 488c 6a3d 4d18 01bd 3f02 68bc 7c41 903d
000001e0: 3d70 773d 7312 f73c a16c 8ebc f028 bdbd
000001f0: 3051 823c b7db b23d 2d22 7fbd f213 f2b9
00000200: 35a8 f5bc 5181 c03c 4e54 303d d7aa 58bd
00000210: b35e 22bd 4877 5c3c f3c7 9fbd 2b24 5d3d
00000220: 7b2f 913d 97d6 be3c e8dc 573c e2fa 103c
00000230: a2dd 893d e1f3 8c3c f905 803d 3859 9c3d
00000240: 02e8 853d 275b 6bbd 0fe8 923d 1017 9a3d
00000250: 1ef8 6e3c 2f21 1c3d c048 c8bb 1b28 b53c
00000260: b723 0c3d 14f6 b2bd 0902 9fbd 8098 e5bc
00000270: 39c9 acbd ce81 91bd a93b c5bd 01b1 6fbd
00000280: 12a3 03bd d4f1 a73a a401 80bd bae7 d3bd
00000290: 1db2 203d 76dc 24bc e475 fcba aab0 55bd
000002a0: 0378 0ebd 5e0f 373d 618a a2bd 1eb8 8ebd
000002b0: 3b63 9b3d 72be d83b b69e 2f3d 2223 9d3d
000002c0: 8edc cbbd 8174 923c e540 a13c 70d4 b53b
000002d0: b3f1 0e3c cb7e c4bb cdd3 46bd 53d1 c539
000002e0: 4372 0bbd a3aa 5c3d b6d2 6a3d a9f5 a63b
000002f0: e3dc 483d 0b98 b6bd 2ea2 043d e0db 63bd
00000300: 7545 88bd 7e4b 4a3d fa5b 63bd c334 093d
00000310: 3833 8dbd 866c 77bd f6c9 72bd a488 febc
00000320: adb5 353c d0a5 bb3d 73c5 8ebd b642 6e3b
00000330: fab0 44bc 7e99 743d d22a b6bd 85a0 5e3d
00000340: 6452 81bd 8448 cdbc 317e adbd 4299 a0bd
00000350: 3af2 de3c 658c 763d 0954 91bd bef0 133b
00000360: c542 aebd 8b2e 203d 3555 e6bb 68aa a03c
00000370: 18dc 793d 4848 c53c aa67 903d 5597 bf3c
00000380: 9d97 1fbb 97af 14bd e727 753d 80a7 3b3c
00000390: f278 a43c 0991 86bd 9363 153d 932d f63c
000003a0: 5e4b 8bbd 3d76 023c 0707 283d 85e7 a8bd
000003b0: 6193 4cbd 4bb0 84bd 38bd 373c ee04 7b3d
000003c0: fa5f 193d 315d 213d cb77 df3c 3f06 773d
000003d0: 0c86 9cbd d8bd 1f3d eec3 24bd f7b9 003e
000003e0: bc6b 9e3c 250c a93d 2222 d1bd 8435 abbd
000003f0: c3d4 983d 93f0 98bc 5d96 833d fbb5 6cbd

fc2.bias f4 [84]
0.11754742 -0.0050646155 -0.1065697 -0.1518434 0.076282285 0.15426677 -0.091888875 0.04998837
-0.0616649 -0.08587571 0.52549076 -0.02529873 0.056890238 0.09830344 0.13216105 0.1633229
-0.024289142 0.14064197 -0.13327289 0.3219935 -0.063737884 0.020990467 0.14305875 0.0808067
0.21487744 -0.00047859913 0.2853484 -0.03769604 -0.06616134 0.0129174525 0.04134761 -0.04861302
-0.035882123 0.043845113 0.043580484 -0.0140517615 -0.060745057 0.017000806 -0.028219163 -0.0660902
-0.021317076 0.13482502 0.055614725 -0.08561274 0.21816248 0.4534902 -0.057109166 0.05667141
0.061673697 -0.08209806 -0.037127938 -0.059146628 0.0076805884 0.032018647 0.28448558 0.12691368
-0.010114074 -0.0122910645 0.03576865 0.17567053 -0.10939748 -0.023735281 0.05821502 0.093396515
0.2559579 -0.036413286 -0.09702119 -0.1480342 -0.008959697 0.21199359 -0.005204963 0.008944218
0.058843784 0.06416189 -0.008362994 0.1987399 -0.09545912 0.009990927 0.01441781 -0.025739485
-0.092417665 0.05152114 -0.031467695 0.22223414
00000000: b4bc f03d 13f5 a5bb 3741 dabd d67c 1bbe
00000010: e339 9c3d 1cf8 1d3e 3c30 bcbd 9bc0 4c3d
00000020: 5694 7cbd 9bdf afbd 9086 063f 483f cfbc
00000030: bd05 693d 5053 c93d 3a55 073e 1e3e 273e
00000040: 06fa c6bc 7304 103e b078 08be 55dc a43e
00000050: 0289 82bd 33f4 ab3c fe7d 123e fc7d a53d
00000060: d508 5c3e 7dec fab9 2f19 923e 2a67 1abd
00000070: 997f 87bd b9a3 533c 1d5c 293d 721e 47bd
00000080: 22f9 12bd ef96 333d 7381 323d 5c39 66bc
00000090: cfcf 78bd 4645 8b3c e02b e7bc 4c5a 87bd
000000a0: 26a1 aebc 920f 0a3e 44cc 633d bb55 afbd
000000b0: fc65 5f3e de2f e83e 4deb 69bd 4820 683d
000000c0: 8f9d 7c3d 0723 a8bd 7713 18bd bc43 72bd
000000d0: 72ad fb3b fc25 033d 18a8 913e a9f5 013e
000000e0: 80b5 25bc 7660 49bc 2682 123d fae2 333e
000000f0: c90b e0bd 7e70 c2bc df72 6e3d ac46 bf3d
00000100: ea0c 833e 1926 15bd 0cb3 c6bd 4796 17be
00000110: b1cb 12bc d914 593e 658e aabb c58a 123c
00000120: 2e06 713d 4f67 833d f004 09bc 7982 4b3e
00000130: 1280 c3bd fcb0 233c ae38 6c3c 9ddb d2bc
00000140: 7945 bdbd d507 533d 45e4 00bd 5991 633e

fc3.weight f4 [10, 84]
0.2883715 -0.026695285 0.11032435 0.059548948 0.028187424 -0.13500142 0.076114 0.031360276
-0.07574076 0.113888234 -0.34407195 -0.033005107 -0.026711466 0.11446947 0.23002711 -0.012943264
0.288707 0.09863841 0.09363551 -0.19718437 0.06671601 -0.042461008 0.1367969 -0.08669109
-0.17339347 0.036969844 0.19805133 0.0804389 0.032870717 -0.028418131 -0.103022374 0.044281367
0.099267095 -0.113178454 -0.06461243 0.006620884 0.16390608 0.10610927 -0.06570776 -0.02175783
0.04318948 0.15756989 -0.014922036 0.07352405 -0.058709774 -0.1699973 -0.03930873 0.0080016805
-0.027953045 0.07037071 0.010089569 0.0024526748 -0.105795234 -0.08890065 0.3226989 -0.032889385
-0.06848732 -0.04903945 0.1428585 -0.0136591485 0.20534685 -0.2958142 0.02488268 -0.11824184
0.28523928 0.061483093 0.17937654 0.019478748 -0.097719185 -0.14747243 -0.16748747 0.006572512
-0.07130944 0.06841801 0.062558234 0.36573526 0.2276797 0.024790823 0.048591804 -0.12509012
-0.035375196 -0.04194761 0.02831924 -0.17019601 -0.057756525 0.07827841 0.3156668 -0.047523856
0.23030792 -0.13462715 -0.09208863 0.15299562 -0.23201132 -0.04822627 -0.078367375 0.07815205
0.23356876 0.21665293 -0.089012645 -0.10849188 -0.1506982 -0.16546589 0.18718722 -0.0459211
-0.066112876 0.06405145 0.19116625 0.026823105 -0.3448392 0.018022053 0.15760905 0.06668661
-0.36377522 0.07009135 -0.15513036 0.10522118 0.26368746 -0.21658711 0.058638625 0.08392026
0.07604595 -0.036217794 0.27914196 -0.035110872 0.015618236 0.0018774632 0.09173927 -0.11602075
0.24007022 -0.49599725 0.14145014 -0.008107815 0.11532955 -0.008727246 0.3318682 -0.019730397
-0.06598816 -0.0044059614 -0.025927214 -0.17670384 -0.08186566 -0.12192118 -0.08238668 0.06824474
0.06851438 0.16256198 -0.05039516 0.11630833 -0.0187279 0.06948051 0.21591184 0.18151866
-0.06996137 -0.046144344 -0.056922942 -0.14552835 0.06378758 -0.092729956 -0.014877977 -0.059832383
-0.051955905 0.073054746 0.06033802 -0.078847855 0.10190285 -0.09276015 0.04389409 -0.25217286
0.08328427 0.08847272 0.058545303 -0.13691697 -0.19574082 0.13798383 0.1374226 0.09416041
0.010788721 0.20911019 0.06788436 -0.09251911 -0.017616266 -0.038871333 -0.05639282 0.107269675
0.007860445 0.035387516 0.040210593 0.18308175 0.09282216 0.04690097 -0.045886647 -0.088497646
-0.08672993 0.06938666 -0.23514645 0.13906977 0.25840437 0.08997646 0.038947616 0.003551957
-0.13583475 0.19733363 0.027569285 0.0032559356 -0.04758309 -0.07892465 0.05051504 -0.051993605
-0.0076261046 0.025240025 0.0032103679 -0.021310966 -0.23025219 0.30709386 0.015277826 -0.03539458
-0.11293585 -0.08081352 -0.15456837 -0.1409385 -0.19574407 0.08520487 0.18140635 0.27224764
-0.018375153 -0.06002998 -0.0677073 0.10076969 0.10541183 -0.017581645 0.071340464 -0.21895362
-0.055770848 0.14284389 0.21050467 -0.07540035 -0.03618235 0.2396163 -0.1344912 -0.06006184
-0.091606185 -0.112046234 -0.036401402 0.20044969 -0.08647669 0.20060362 0.022718733 -0.045640353
0.10634421 0.024810052 -0.055080336 -0.11364852 -0.08980154 0.030720662 -0.10538534 0.115988694
00000000: 6ea5 933e 12b0 dabc bcf1 e13d 99e9 733d
00000010: 50e9 e63c d03d 0abe a8e1 9b3d a273 003d
00000020: f91d 9bbd 3c3e e93d 332a b0be 5d30 07bd
00000030: 01d2 dabc f86e ea3d 3a8c 6b3e fc0f 54bc
00000040: 67d1 933e ef02 ca3d f9c3 bf3d b3ea 49be
00000050: 67a2 883d 98eb 2dbd 7d14 0c3e 198b b1bd
00000060: 0f8e 31be b16d 173d f8cd 4a3e 26bd a43d
00000070: 72a3 063d 24cd e8bc 65fd d2bd 6160 353d
00000080: 8c4c cb3d 1bca e7bd 8653 84bd 00f4 d83b
00000090: ffd6 273e d14f d93d ca91 86bd 7a3d b2bc
000000a0: 74e7 303d 005a 213e 8e7b 74bc c793 963d
000000b0: a979 70bd c613 2ebe 3102 21bd 7b19 033c
000000c0: c9fd e4bc 851e 903d b84e 253c 0ebd 203b
000000d0: 2cab d8bd 8b11 b6bd ca38 a53e 05b7 06bd
000000e0: 1443 8cbd 97dd 48bd 8049 123e 9fca 5fbc
000000f0: 7246 523e f574 97be c3d6 cb3c c728 f2bd
00000100: e20a 923e b2d5 7b3d 7cae 373e e591 9f3c
00000110: ff20 c8bd 0303 17be d681 2bbe 3a5e d73b
00000120: af0a 92bd be1e 8c3d 881e 803d a741 bb3e
00000130: de24 693e 2016 cb3c 3308 473d a017 00be
00000140: 95e5 10bd 42d1 2bbd c0fd e73c dd47 2ebe
00000150: 1b92 6cbd 6e50 a03d 149f a13e 60a8 42bd
00000160: d7d5 6b3e b3db 09be f798 bcbd e2aa 1c3e
00000170: 6094 6dbe e988 45bd 137f a0bd 2f0e a03d
00000180: a62c 6f3e 44da 5d3e 434c b6bd fe30 debd
00000190: a150 1abe e46f 29be 02ae 3f3e c317 3cbd
000001a0: 3066 87bd 682d 833d 16c1 433e 21bc db3c
000001b0: c38e b0be fca2 933c 4464 213e fd92 883d
000001c0: bf40 babe 0e8c 8f3d 7eda 1ebe 347e d73d
000001d0: 0b02 873e 03c9 5dbe 0e2f 703d 63de ab3d
000001e0: fbbd 9b3d 1c59 14bd b2eb 8e3e 6bd0 0fbd
000001f0: a1e3 7f3c 3615 f63a cce1 bb3d 499c edbd
00000200: f8d4 753e 5af3 fdbe 4ed8 103e a4d6 04bc
00000210: e631 ec3d b9fc 0ebc a1ea a93e a4a1 a1bc
00000220: cd24 87bd e25f 90bb 4f65 d4bc daf1 34be
00000230: 2fa9 a7bd d0b1 f9bd 59ba a8bd e6c3 8b3d
00000240: 4451 8c3d a676 263e 286b 4ebd 1033 ee3d
00000250: 416b 99bc cc4b 8e3d fe17 5d3e 07e0 393e
00000260: e847 8fbd da01 3dbd 0828 69bd 6205 15be
00000270: 10a3 823d 34e9 bdbd c2c2 73bc cd12 75bd
00000280: b7cf 54bd ba9d 953d 0025 773d fc7a a1bd
00000290: 71b2 d03d 09f9 bdbd 4aca 333d cd1c 81be
000002a0: f190 aa3d 2f31 b53d 33cd 6f3d f633 0cbe
000002b0: 4870 48be a24b 0d3e 83b8 0c3e 2cd7 c03d
000002c0: 2dc3 303c fb20 563e f506 8b3d a97a bdbd
000002d0: fd4f 90bc 8c37 1fbd 28fc 66bd 34b0 db3d
000002e0: 19c9 003c 80f2 103d ddb3 243d c879 3b3e
000002f0: 8b19 be3d 3b1b 403d a3f3 3bbd 413e b5bd
00000300: 769f b1bd 981a 8e3d 3bca 70be 4e68 0e3e
00000310: 944d 843e 9445 b83d 8987 1f3d f3c7 683b
00000320: 4418 0bbe d411 4a3e fbd8 e13c 8961 553b
00000330: 7ce6 42bd 3fa3 a1bd dce8 4e3d 3ff7 54bd
00000340: 67e4 f9bb 2bc4 ce3c 0965 523b 5694 aebc
00000350: 3bc7 6bbe 683b 9d3e d94f 7a3c e8f9 10bd
00000360: e94a e7bd 8f81 a5bd 2c47 1ebe 2f52 10be
00000370: 2271 48be e47f ae3d 96c2 393e 0b64 8b3e
00000380: 7d87 96bc ffe1 75bd 20aa 8abd 5760 ce3d
00000390: 28e2 d73d 6207 90bc f31a 923d 6135 60be
000003a0: f96f 64bd ab45 123e 898e 573e 806b 9abd
000003b0: f233 14bd fa5d 753e 10b8 09be 6703 76bd
000003c0: 069c bbbd 7f78 e5bd a319 15bd af42 4d3e
000003d0: b11a b1bd 096b 4d3e a31c ba3c 61f1 3abd
000003e0: feca d93d 733e cb3c eb9b 61bd 8ec0 e8bd
000003f0: dfe9 b7bd e6a9 fb3c 45d4 d7bd 7b8b ed3d

fc3.bias f4 [10]
-0.2604917 -0.43050155 0.19005495 0.17807528 0.5655964 -0.21061178 0.34506547 -0.46440294
0.2468041 -0.2512816
00000000: 2b5f 85be b36a dcbe c49d 423e 5e59 363e
00000010: edca 103f 9daa 57be 6cac b03e 39c6 edbe
00000020: 37ba 7c3e fba7 80be
